…
 45 48  6 99 82 76 60 80 90 68 51 27 18 56 63 74  1 61 42 41  4 15 17 40
 38  5 91 59  0 34 28 50 11 35 23 52 10 31 66 57 79 85 32 84 14 89 19 29
 49 97 98 69 20 94 72 77 25 37 81 46 39 65 58 12 88 70 87 36 21 83  9 96
 67 64 47 44] [18 29 64 92 72 87  5 15 12 17 61 76  9 78 80  7 33  6 37 74 79  1 45 28
 60 52 25 39 97 44 16 55 83 49 22 70 47  4 82 94 53 66 26 84 31 63  8 75
 98 57 71 99 86 96 69 24 30 13 40 56 68 95 81 19 38 91 54 32 51 85 11 89
 90 36 65 88 41 14 27 50 20 46 67 35 62  2 59 23 58 43 10  0 73 21 77 42
  3 93 48 34]
Channel_ModAE(
  (enc): ENC_interCNN2D(
    (enc_cnn_1): SameShapeConv2d(
      (cnns): ModuleList(
        (0): Conv2d(1, 100, kernel_size=(5, 5), stride=(1, 1), padding=(2, 2))
        (1): Conv2d(100, 100, kernel_size=(5, 5), stride=(1, 1), padding=(2, 2))
      )
    )
    (enc_linear_1): SameShapeConv2d(
      (cnns): ModuleList(
        (0): Conv2d(100, 1, kernel_size=(1, 1), stride=(1, 1))
      )
    )
    (enc_cnn_2): SameShapeConv2d(
      (cnns): ModuleList(
        (0): Conv2d(1, 100, kernel_size=(5, 5), stride=(1, 1), padding=(2, 2))
        (1): Conv2d(100, 100, kernel_size=(5, 5), stride=(1, 1), padding=(2, 2))
      )
    )
    (enc_linear_2): SameShapeConv2d(
      (cnns): ModuleList(
        (0): Conv2d(100, 1, kernel_size=(1, 1), stride=(1, 1))
      )
    )
    (enc_cnn_3): SameShapeConv2d(
      (cnns): ModuleList(
        (0): Conv2d(1, 100, kernel_size=(5, 5), stride=(1, 1), padding=(2, 2))
        (1): Conv2d(100, 100, kernel_size=(5, 5), stride=(1, 1), padding=(2, 2))
      )
    )
    (enc_linear_3): SameShapeConv2d(
      (cnns): ModuleList(
        (0): Conv2d(100, 1, kernel_size=(1, 1), stride=(1, 1))
      )
    )
    (interleaver): Interleaver2D()
  )
  (dec): DEC_LargeCNN2D(
    (interleaver): Interleaver2D()
    (deinterleaver): DeInterleaver2D()
    (dec1_cnns): ModuleList(
      (0): SameShapeConv2d(
        (cnns): ModuleList(
          (0): Conv2d(7, 100, kernel_size=(5, 5), stride=(1, 1), padding=(2, 2))
          (1): Conv2d(100, 100, kernel_size=(5, 5), stride=(1, 1), padding=(2, 2))
          (2): Conv2d(100, 100, kernel_size=(5, 5), stride=(1, 1), padding=(2, 2))
          (3): Conv2d(100, 100, kernel_size=(5, 5), stride=(1, 1), padding=(2, 2))
          (4): Conv2d(100, 100, kernel_size=(5, 5), stride=(1, 1), padding=(2, 2))
        )
      )
      (1): SameShapeConv2d(
        (cnns): ModuleList(
          (0): Conv2d(7, 100, kernel_size=(5, 5), stride=(1, 1), padding=(2, 2))
          (1): Conv2d(100, 100, kernel_size=(5, 5), stride=(1, 1), padding=(2, 2))
          (2): Conv2d(100, 100, kernel_size=(5, 5), stride=(1, 1), padding=(2, 2))
          (3): Conv2d(100, 100, kernel_size=(5, 5), stride=(1, 1), padding=(2, 2))
          (4): Conv2d(100, 100, kernel_size=(5, 5), stride=(1, 1), padding=(2, 2))
        )
      )
      (2): SameShapeConv2d(
        (cnns): ModuleList(
          (0): Conv2d(7, 100, kernel_size=(5, 5), stride=(1, 1), padding=(2, 2))
          (1): Conv2d(100, 100, kernel_size=(5, 5), stride=(1, 1), padding=(2, 2))
          (2): Conv2d(100, 100, kernel_size=(5, 5), stride=(1, 1), padding=(2, 2))
          (3): Conv2d(100, 100, kernel_size=(5, 5), stride=(1, 1), padding=(2, 2))
          (4): Conv2d(100, 100, kernel_size=(5, 5), stride=(1, 1), padding=(2, 2))
        )
      )
      (3): SameShapeConv2d(
        (cnns): ModuleList(
          (0): Conv2d(7, 100, kernel_size=(5, 5), stride=(1, 1), padding=(2, 2))
          (1): Conv2d(100, 100, kernel_size=(5, 5), stride=(1, 1), padding=(2, 2))
          (2): Conv2d(100, 100, kernel_size=(5, 5), stride=(1, 1), padding=(2, 2))
          (3): Conv2d(100, 100, kernel_size=(5, 5), stride=(1, 1), padding=(2, 2))
          (4): Conv2d(100, 100, kernel_size=(5, 5), stride=(1, 1), padding=(2, 2))
        )
      )
      (4): SameShapeConv2d(
        (cnns): ModuleList(
          (0): Conv2d(7, 100, kernel_size=(5, 5), stride=(1, 1), padding=(2, 2))
          (1): Conv2d(100, 100, kernel_size=(5, 5), stride=(1, 1), padding=(2, 2))
          (2): Conv2d(100, 100, kernel_size=(5, 5), stride=(1, 1), padding=(2, 2))
          (3): Conv2d(100, 100, kernel_size=(5, 5), stride=(1, 1), padding=(2, 2))
          (4): Conv2d(100, 100, kernel_size=(5, 5), stride=(1, 1), padding=(2, 2))
        )
      )
      (5): SameShapeConv2d(
        (cnns): ModuleList(
          (0): Conv2d(7, 100, kernel_size=(5, 5), stride=(1, 1), padding=(2, 2))
          (1): Conv2d(100, 100, kernel_size=(5, 5), stride=(1, 1), padding=(2, 2))
          (2): Conv2d(100, 100, kernel_size=(5, 5), stride=(1, 1), padding=(2, 2))
          (3): Conv2d(100, 100, kernel_size=(5, 5), stride=(1, 1), padding=(2, 2))
          (4): Conv2d(100, 100, kernel_size=(5, 5), stride=(1, 1), padding=(2, 2))
        )
      )
    )
    (dec2_cnns): ModuleList(
      (0): SameShapeConv2d(
        (cnns): ModuleList(
          (0): Conv2d(7, 100, kernel_size=(5, 5), stride=(1, 1), padding=(2, 2))
          (1): Conv2d(100, 100, kernel_size=(5, 5), stride=(1, 1), padding=(2, 2))
          (2): Conv2d(100, 100, kernel_size=(5, 5), stride=(1, 1), padding=(2, 2))
          (3): Conv2d(100, 100, kernel_size=(5, 5), stride=(1, 1), padding=(2, 2))
          (4): Conv2d(100, 100, kernel_size=(5, 5), stride=(1, 1), padding=(2, 2))
        )
      )
      (1): SameShapeConv2d(
        (cnns): ModuleList(
          (0): Conv2d(7, 100, kernel_size=(5, 5), stride=(1, 1), padding=(2, 2))
          (1): Conv2d(100, 100, kernel_size=(5, 5), stride=(1, 1), padding=(2, 2))
          (2): Conv2d(100, 100, kernel_size=(5, 5), stride=(1, 1), padding=(2, 2))
          (3): Conv2d(100, 100, kernel_size=(5, 5), stride=(1, 1), padding=(2, 2))
          (4): Conv2d(100, 100, kernel_size=(5, 5), stride=(1, 1), padding=(2, 2))
        )
      )
      (2): SameShapeConv2d(
        (cnns): ModuleList(
          (0): Conv2d(7, 100, kernel_size=(5, 5), stride=(1, 1), padding=(2, 2))
          (1): Conv2d(100, 100, kernel_size=(5, 5), stride=(1, 1), padding=(2, 2))
          (2): Conv2d(100, 100, kernel_size=(5, 5), stride=(1, 1), padding=(2, 2))
          (3): Conv2d(100, 100, kernel_size=(5, 5), stride=(1, 1), padding=(2, 2))
          (4): Conv2d(100, 100, kernel_size=(5, 5), stride=(1, 1), padding=(2, 2))
        )
      )
      (3): SameShapeConv2d(
        (cnns): ModuleList(
          (0): Conv2d(7, 100, kernel_size=(5, 5), stride=(1, 1), padding=(2, 2))
          (1): Conv2d(100, 100, kernel_size=(5, 5), stride=(1, 1), padding=(2, 2))
          (2): Conv2d(100, 100, kernel_size=(5, 5), stride=(1, 1), padding=(2, 2))
          (3): Conv2d(100, 100, kernel_size=(5, 5), stride=(1, 1), padding=(2, 2))
          (4): Conv2d(100, 100, kernel_size=(5, 5), stride=(1, 1), padding=(2, 2))
        )
      )
      (4): SameShapeConv2d(
        (cnns): ModuleList(
          (0): Conv2d(7, 100, kernel_size=(5, 5), stride=(1, 1), padding=(2, 2))
          (1): Conv2d(100, 100, kernel_size=(5, 5), stride=(1, 1), padding=(2, 2))
          (2): Conv2d(100, 100, kernel_size=(5, 5), stride=(1, 1), padding=(2, 2))
          (3): Conv2d(100, 100, kernel_size=(5, 5), stride=(1, 1), padding=(2, 2))
          (4): Conv2d(100, 100, kernel_size=(5, 5), stride=(1, 1), padding=(2, 2))
        )
      )
      (5): SameShapeConv2d(
        (cnns): ModuleList(
          (0): Conv2d(7, 100, kernel_size=(5, 5), stride=(1, 1), padding=(2, 2))
          (1): Conv2d(100, 100, kernel_size=(5, 5), stride=(1, 1), padding=(2, 2))
          (2): Conv2d(100, 100, kernel_size=(5, 5), stride=(1, 1), padding=(2, 2))
          (3): Conv2d(100, 100, kernel_size=(5, 5), stride=(1, 1), padding=(2, 2))
          (4): Conv2d(100, 100, kernel_size=(5, 5), stride=(1, 1), padding=(2, 2))
        )
      )
    )
    (dec1_outputs): ModuleList(
      (0): SameShapeConv2d(
        (cnns): ModuleList(
          (0): Conv2d(100, 5, kernel_size=(1, 1), stride=(1, 1))
        )
      )
      (1): SameShapeConv2d(
        (cnns): ModuleList(
          (0): Conv2d(100, 5, kernel_size=(1, 1), stride=(1, 1))
        )
      )
      (2): SameShapeConv2d(
        (cnns): ModuleList(
          (0): Conv2d(100, 5, kernel_size=(1, 1), stride=(1, 1))
        )
      )
      (3): SameShapeConv2d(
        (cnns): ModuleList(
          (0): Conv2d(100, 5, kernel_size=(1, 1), stride=(1, 1))
        )
      )
      (4): SameShapeConv2d(
        (cnns): ModuleList(
          (0): Conv2d(100, 5, kernel_size=(1, 1), stride=(1, 1))
        )
      )
      (5): SameShapeConv2d(
        (cnns): ModuleList(
          (0): Conv2d(100, 5, kernel_size=(1, 1), stride=(1, 1))
        )
      )
    )
    (dec2_outputs): ModuleList(
      (0): SameShapeConv2d(
        (cnns): ModuleList(
          (0): Conv2d(100, 5, kernel_size=(1, 1), stride=(1, 1))
        )
      )
      (1): SameShapeConv2d(
        (cnns): ModuleList(
          (0): Conv2d(100, 5, kernel_size=(1, 1), stride=(1, 1))
        )
      )
      (2): SameShapeConv2d(
        (cnns): ModuleList(
          (0): Conv2d(100, 5, kernel_size=(1, 1), stride=(1, 1))
        )
      )
      (3): SameShapeConv2d(
        (cnns): ModuleList(
          (0): Conv2d(100, 5, kernel_size=(1, 1), stride=(1, 1))
        )
      )
      (4): SameShapeConv2d(
        (cnns): ModuleList(
          (0): Conv2d(100, 5, kernel_size=(1, 1), stride=(1, 1))
        )
      )
      (5): SameShapeConv2d(
        (cnns): ModuleList(
          (0): Conv2d(100, 1, kernel_size=(1, 1), stride=(1, 1))
        )
      )
    )
  )
  (mod): Modulation(
    (mod_layer): SameShapeConv1d(
      (cnns): ModuleList(
        (0): Conv1d(2, 20, kernel_size=(1,), stride=(1,))
      )
    )
    (mod_final): SameShapeConv1d(
      (cnns): ModuleList(
        (0): Conv1d(20, 2, kernel_size=(1,), stride=(1,))
      )
    )
  )
  (demod): DeModulation(
    (demod_layer): SameShapeConv1d(
      (cnns): ModuleList(
        (0): Conv1d(2, 20, kernel_size=(1,), stride=(1,))
      )
    )
    (demod_final): SameShapeConv1d(
      (cnns): ModuleList(
        (0): Conv1d(20, 2, kernel_size=(1,), stride=(1,))
      )
    )
  )
)
====> Epoch: 1 Average loss: 0.69338804  running time 124.82549118995667
====> Epoch: 1 Average loss: 5.38641565  running time 184.78844332695007
====> Epoch: 1 Average loss: 43.44175044  running time 278.0989363193512
====> Epoch: 1 Average loss: 50.09500046  running time 135.6675045490265
====> Epoch: 1 Average loss: 49.95200005  running time 162.75836443901062
…
